toyRegression/toyRegression/training_logs/model_SGLD-64_1/checkpoints/model_SGLD-64_1_epoch_3.pth (torch_old, 2971 bytes, 10 tensors)

fc1_mean.weight f4 [10, 1]
00000000: 69a5 6bbf 4a43 3abf 8867 3b3f 8276 8fbc
00000010: c3be 043e 1dcf 99bd 95be c93d 96dd 34bf
00000020: 3e31 ea3d 1d33 3e3e
-0.9204927 -0.72758925 0.7320485 -0.017512564 0.12963395 -0.07510207 0.09850804 -0.70650613
0.114351735 0.18574186

fc1_mean.bias f4 [10]
00000000: decc 7e3f 8d55 013f 9ceb 50bf a998 f1be
00000010: ac5b 983e 4a7c 573d 66ef d1be ba0f 60bf
00000020: db53 6fbf 1907 153f
0.9953135 0.50521165 -0.8160951 -0.47186783 0.2975744 0.052608766 -0.4100296 -0.87523997
-0.9348733 0.58213955

fc2_mean.weight f4 [10, 10]
00000000: 57f7 cd3d abb3 b43e 4f19 4e3e 9484 62bd
00000010: bbd9 623d 6c83 453e 6687 2b3d 3e5f 483e
00000020: 14dd 873e 9b7e edbd 2bad be3e c099 013e
00000030: b641 72be 1d1d 3ebe 29e6 933e 77af 17be
00000040: 6841 b43d 7c9e a93d 9d3c f0bd 4351 a8be
00000050: 8131 853e cb2e 35be d63a aabe c2e5 333e
00000060: 1c8b 89bd 03dd 7fbe 35fb 0f3e d743 d43c
00000070: 9567 25be 5dfe 7fbc 3557 a6bc 34ce 2bbd
00000080: a15e 1dbe 51e8 78bd c567 f93b 732d 093e
00000090: a5b5 0bbe 4a26 4f3e 67f0 e43d fd03 29be
000000a0: 50a3 3abe cfdf a13e 0a46 903d bba6 633e
000000b0: 5973 e5bd 5ccb 0c3e aad3 5cbd cca4 80be
000000c0: 6849 acbd 2da2 01be 58ab 1ebe 632d 003d
000000d0: b2a9 1bbc 254a 49be 2816 96be 1f63 c93d
000000e0: 415a 60bc 78b4 24be 2fc2 6cbe 9d0a a63e
000000f0: b95a f63d e080 0fbd c134 d0bd 903e 81be
00000100: 3787 86be 3345 0b3e 1d2e 7bbe 3858 9ebe
00000110: 9841 203e cec0 003d 4928 133d 7783 343e
00000120: 4c51 193e f87d 7abe 0d23 1f3e 260c 913d
00000130: 25ff 393d 7916 373c 78d7 dc3d 36a0 4ebe
00000140: fc00 b5bd 7a8a 803e 4533 713e 28ca 6dbe
00000150: bba2 a93d 9711 86be 6ea6 963d d4d8 513e
00000160: ea00 003e 4fd2 79be 6420 003d 97ef 0e3e
00000170: 4406 7f3e 8370 1b3e 8fa3 8e3d 1900 8b3e
00000180: 9230 58be 08c7 07be cbde e7bc 8b91 33be
0.10056942 0.35293326 0.20126842 -0.055302218 0.055383425 0.19288415 0.041877173 0.19567582
0.26535857 -0.11596414 0.37241492 0.12656307 -0.23657879 -0.18565793 0.28886536 -0.14813028
0.08801538 0.082821816 -0.11730311 -0.32874498 0.2601433 -0.17693631 -0.33248013 0.17568114
-0.06715986 -0.24986653 0.14060672 0.025911255 -0.16152795 -0.01562461 -0.020305255 -0.041944697
-0.1536813 -0.06076843 0.0076112472 0.13396244 -0.1364351 0.2022945 0.111786656 -0.16505428
-0.18226361 0.31616065 0.07044609 0.22231571 -0.112036414 0.1374945 -0.053912796 -0.2512573
-0.08412439 -0.12659521 -0.1549505 0.031293284 -0.009500908 -0.1965719 -0.2931378 0.09833359
-0.013693393 -0.16084468 -0.2312095 0.32429972 0.12029023 -0.035035014 -0.10166312 -0.25243044
-0.26275036 0.13600616 -0.2452931 -0.3092668 0.15650022 0.031433873 0.03592709 0.17628275
0.14972419 -0.24462116 0.15540715 0.07082395 0.04540934 0.0111747915 0.10783285 -0.20178303
-0.088380784 0.2510565 0.23554714 -0.23221648 0.082829915 -0.26185295 0.07355963 0.2049287
0.12500349 -0.24396633 0.03128089 0.13958584 0.24904734 0.15179639 0.0696479 0.27148512
-0.21112278 -0.13259518 -0.028304478 -0.17535989

fc2_mean.bias f4 [10]
00000000: c761 b33c f517 3a3e 3c91 bebd b553 563e
00000010: 0a05 153e 3253 dfbd 6873 603d 27cf 66be
00000020: 91f9 09be d783 07bd
0.02189721 0.18173201 -0.09305045 0.20930369 0.14552703 -0.1090454 0.05479756 -0.2253996
-0.13474108 -0.033084717

fc3_mean.weight f4 [1, 10]
00000000: ab16 acbe 687a b1be 62f4 dcbd 591e 2cbe
00000010: ddde 91be cb19 50be 38fd 9bbe edb7 823d
00000020: 54bf 773e 0ece 093d
-0.33611044 -0.346637 -0.107888 -0.16808452 -0.28490344 -0.20322339 -0.30466628 0.06382737
0.2419408 0.033643775

fc1_var.weight f4 [10, 1]
00000000: fed3 0e3f 97e5 26bf afc0 163d 2820 b23e
00000010: 0eb6 bd3e 2968 d8be c79f 5cbc 4aac 153e
00000020: 7ace 45bf 37d1 be3d
0.55792224 -0.65194076 0.03680485 0.34790158 0.3705296 -0.42266968 -0.013465828 0.14616504
-0.77268183 0.09317248

fc1_var.bias f4 [10]
00000000: 2547 c0be e481 d93e 3240 0cbf e739 8bbd
00000010: a96c 033f 5dde 83bf 7daf 623e acb6 853e
00000020: 63fd 3bbe 49c3 433f
-0.3755428 0.4248191 -0.54785454 -0.06798153 0.5133768 -1.0302235 0.22137256 0.2611593
-0.18358378 0.76469857

fc2_var.weight f4 [10, 10]
00000000: cd8b afbd ea11 0e3b fdee 49be 8951 783e
00000010: 98bc 963e 9874 c63d 4b91 88be 9ec7 1abe
00000020: a90c 9d3e 6cff c73e aa9c c4bd 4c44 c03d
00000030: 661d 61be a431 2ebd 5226 b4be 1e5a 353d
00000040: bf95 773e 5621 99be 4b91 2c3d a426 463e
00000050: 8f5b 00bd d45a 3a3e 2da4 0a3e 60d1 c2bd
00000060: 6002 68bd e36b 3b3e 6dbf 55bd 9a0d 89be
00000070: 415b 99bd a1de c23b 898f 70be c670 f43d
00000080: 5991 27be e51f 1a3e d8b3 813e 4ddc 83be
00000090: 5035 2ebe a26b f6bd 025d 73bd 506b 7d3d
000000a0: 3660 a9bb 0c74 203d ee08 223e 2065 cbbd
000000b0: 9a62 163e d56b a1bd afa2 17be 5d8b 0f3e
000000c0: 6ab3 1ebd 850b 533e 3877 04be ce94 78bd
000000d0: 1630 aabe db05 01be 05cf 6ebd 110a 57bb
000000e0: 583c c03d ce0f 243e bbb5 f83c d8b1 86be
000000f0: 9576 423d d40f 4a3e 9409 d93d c127 e33d
00000100: fcae c93d cada 5f3d 0717 56be 216d c73d
00000110: 0171 51be 5222 aebe 1d60 12bd fbcf 72be
00000120: d841 423e b5fb 2dbe 8f40 4bbe 4e6a 16bc
00000130: 472c 203e 28d8 f93d 6c18 50be cd66 6dbe
00000140: d52c 65be 8a21 d5bd 7b09 493e 436f 9cbd
00000150: f6d1 96be b67d 9dbe 790a 493e 8765 74be
00000160: a0be 703e 6812 c1be 6902 a03d 92ba 9dbe
00000170: 4633 7bbd 0a21 9b3e 54b7 d83d 8cc2 ee3d
00000180: 294a 413e 52c1 a83d a97a 36be 5164 983c
-0.08571587 0.0021678158 -0.19720073 0.24249853 0.2944076 0.09690207 -0.2667335 -0.1511521
0.3067372 0.3906206 -0.09600194 0.093880266 -0.21983871 -0.04252781 -0.35185486 0.044275396
0.24178217 -0.29908246 0.04213075 0.19350678 -0.031337317 0.1819871 0.1353919 -0.09512591
-0.05664289 0.18302874 -0.05218451 -0.2676819 -0.074881084 0.0059469496 -0.23492254 0.11935572
-0.1636404 0.1505123 0.25332522 -0.25754014 -0.17012525 -0.12032248 -0.05941487 0.06186992
-0.00516894 0.03917317 0.15823719 -0.099313974 0.14686051 -0.078818955 -0.14808153 0.14018007
-0.03874532 0.20609863 -0.12936103 -0.060688786 -0.33239812 -0.1259989 -0.058302898 -0.0032812397
0.0938651 0.16021654 0.030360093 -0.2630756 0.04747637 0.197326 0.1059753 0.11091567
0.09847829 0.054652013 -0.20907222 0.097376116 -0.20453264 -0.3401056 -0.035736192 -0.23712151
0.1897043 -0.1699055 -0.19848846 -0.009180618 0.1564189 0.12199432 -0.20321816 -0.23183747
-0.22380383 -0.10406788 0.19632523 -0.07638409 -0.29457062 -0.30759972 0.19632901 -0.23866855
0.23510218 -0.37709355 0.0781296 -0.30806404 -0.061328195 0.30298644 0.10581842 0.116582006
0.18875946 0.08239998 -0.17820229 0.018602522

fc2_var.bias f4 [10]
00000000: be4a a83e b634 b1be 05bd 61be e476 15be
00000010: e7d3 d03d de76 91bc ff1d c03d 7e46 68be
00000020: da79 e03d ab8d 2f3e
0.32869524 -0.34610528 -0.22044761 -0.14596134 0.10196667 -0.017756876 0.09380721 -0.2268314
0.10960741 0.17143886

fc3_var.weight f4 [1, 10]
00000000: 1576 d2be e8ba d23d 6e70 1cbe e591 86bd
00000010: 9377 833d 2896 33be 1306 2d3e cf8e c23e
00000020: e51e 803e 13be 073e
-0.41105714 0.10289556 -0.15277264 -0.06570796 0.06419291 -0.17537749 0.16896848 0.3799958
0.2502357 0.13256101
