toyRegression/toyRegression/training_logs/model_SGLD-64_1/checkpoints/model_SGLD-64_1_epoch_5.pth (torch_old, 2971 bytes, 10 tensors)

fc1_mean.weight f4 [10, 1]
000000 6e 97 7c bf f5 a7 39 bf 05 c5 43 3f 9c 5b 4e bc
       -0.98668563 -0.7252191 0.764725 -0.012595084
000010 63 3f 13 3e 96 a6 b5 bd 94 fa 81 3d f0 61 29 bf
       0.14379649 -0.08869664 0.06346622 -0.66165066
000020 7e 31 fb 3d de 9f 59 3e
       0.12265299 0.2125239

fc1_mean.bias f4 [10]
000000 25 06 83 3f d4 27 04 3f ed 2a 60 bf 39 ca e0 be
       1.023625 0.5162327 -0.875655 -0.43904284
000010 79 69 99 3e d2 14 ad 3d 89 4d c4 be ac c2 62 bf
       0.29963282 0.08451237 -0.38340405 -0.88578296
000020 a3 7a 5d bf eb 6a 29 3f
       -0.86515254 0.6617877

fc2_mean.weight f4 [10, 10]
000000 a7 ff 8e 3d ee 7a b9 3e fe db 54 3e c8 08 b1 bd
       0.069823556 0.362266 0.20787045 -0.08644253
000010 2c ae 90 3d a5 1e 3e 3e 7d fb 47 3d 53 85 68 3e
       0.07064471 0.18566377 0.048823822 0.22707109
000020 cf a3 a0 3e 4b 10 00 be ea 65 c3 3e 07 9d 2d 3e
       0.31374976 -0.12506215 0.38163692 0.16954432
000030 26 04 9b be f7 44 4d be a1 64 8f 3e 99 26 2b be
       -0.30276603 -0.20045839 0.2800646 -0.16713943
000040 61 20 87 3d 65 21 96 3d 73 3a cf bd e2 7a b7 be
       0.06597973 0.07330588 -0.1011857 -0.3583594
000050 01 38 b3 3e 01 59 47 be c4 0c b5 be 84 30 24 3e
       0.35003665 -0.19467546 -0.35361302 0.16034132
000060 71 7b 6e bd ac 21 82 be 85 34 1a 3e fb ac a5 3c
       -0.05822319 -0.25416315 0.15059097 0.020224085
000070 58 fc 49 be 45 e1 80 bd a5 fc 7e 3c 99 33 c7 bd
       -0.19725168 -0.06292967 0.015563165 -0.09726638
000080 6b e0 38 be 1d 7b 00 be 09 54 44 3c ab 14 22 3e
       -0.18054359 -0.12546964 0.011982926 0.15828197
000090 3a 4f c3 bd f6 4b 4e 3e 28 98 08 3e f9 89 17 be
       -0.09536596 0.20146164 0.13339293 -0.14798726
0000a0 d9 5d 21 be 5b 41 bb 3e c2 43 a2 3c dc 75 3e 3e
       -0.15758456 0.365733 0.0198077 0.18599647
0000b0 b9 ca 12 be 23 cf f3 3d aa 6d 58 3c 98 82 76 be
       -0.14335145 0.119047426 0.01320974 -0.24073255
0000c0 9e 1a e5 bd d7 ed dc bd 09 b7 14 be 45 db 2a 3b
       -0.111867175 -0.10787552 -0.14522947 0.0026070636
0000d0 04 1c e8 bc ae 39 67 be cf d7 8d be 7d 9d 77 3d
       -0.028333671 -0.22580597 -0.2770371 0.060452927
0000e0 da 12 3a 3d ed 09 23 be 04 d5 4b be d2 79 98 3e
       0.045428135 -0.15921755 -0.19905478 0.29780442
0000f0 18 98 14 3e 5b 70 80 bd 48 16 10 bd bb ba 9a be
       0.14511144 -0.0627143 -0.0351775 -0.3022059
000100 80 2d 85 be 09 01 e6 3d 30 d6 81 be e3 95 b7 be
       -0.26011276 0.11230666 -0.25358725 -0.35856542
000110 b7 fe 1e 3e bc da a7 3c 3e 4a b7 3d d4 f7 2b 3e
       0.15526854 0.020490043 0.089497074 0.16793758
000120 15 a5 e4 3d e5 61 73 be ef 8d 4c 3e d3 80 24 3d
       0.111642994 -0.23767813 0.19976018 0.04016192
000130 35 94 c1 bc 57 82 fc bc d3 1f 07 3e 40 af 3e be
       -0.023630241 -0.03082387 0.13195734 -0.1862154
000140 59 29 a3 bd 79 c8 b8 3e 6d e9 3e 3e e7 80 5e be
       -0.07966871 0.36090448 0.18643732 -0.2172886
000150 e1 c7 1b 3e e0 31 5b be 20 48 cc 3d b2 0b 87 3e
       0.15212967 -0.21405745 0.09974694 0.2637611
000160 47 41 3f 3e 86 6d 76 be 62 bb f6 3c 3a ff 0b 3e
       0.18677245 -0.24065217 0.030118648 0.1367158
000170 51 6e 45 3e c4 6f 17 3e 4b 5f 9f 3d cd 9d 98 3e
       0.19280364 0.14788729 0.077818476 0.29807892
000180 ad 6a 79 be f2 a9 1f be 46 54 3f bd 60 09 06 be
       -0.243571 -0.15592173 -0.04671123 -0.13089514

fc2_mean.bias f4 [10]
000000 78 07 c9 bc 12 2b 3d 3e a9 35 f8 bd cc c0 4e 3e
       -0.024539694 0.18473461 -0.1211961 0.20190734
000010 d9 98 eb 3d 8f 0a 09 be f3 58 48 3d 1b 95 7f be
       0.11503763 -0.13382934 0.048912954 -0.24959223
000020 03 2f 09 be 51 8f 9b 3b
       -0.1339684 0.0047473093

fc3_mean.weight f4 [1, 10]
000000 b7 0f b0 be 57 e4 e4 be d8 94 eb bd f1 a9 e9 bd
       -0.3438699 -0.4470546 -0.11502999 -0.11409367
000010 93 b2 92 be 48 4f 50 be 82 c0 b1 be 17 d2 ce 3d
       -0.28651866 -0.20342743 -0.34717184 0.10098665
000020 fc a5 4d 3e fb a3 1f 3d
       0.2008285 0.038974743

fc1_var.weight f4 [10, 1]
000000 ae 6d 1a 3f 4f 38 2a bf 37 30 c0 3c 21 af c4 3e
       0.6032361 -0.6649217 0.02346049 0.38414863
000010 72 90 ca 3e 70 84 d3 be a8 86 22 bc a3 67 54 3d
       0.39563328 -0.4131198 -0.0099198 0.05185665
000020 2a 3e 4c bf f1 4e f9 3d
       -0.79782355 0.1217326

fc1_var.bias f4 [10]
000000 46 db c8 be a8 a0 ed 3e 58 ac 0a bf 0f b7 ef bc
       -0.39229792 0.46411633 -0.54169226 -0.029262094
000010 21 98 0e 3f c9 a3 80 bf 38 47 4e 3e 8f c1 6a 3e
       0.5570088 -1.0049983 0.20144355 0.22925399
000020 58 97 4e be 08 d1 3d 3f
       -0.2017492 0.7414708

fc2_var.weight f4 [10, 10]
000000 ae 0c 15 bd cc 46 06 3c d5 c1 80 be 37 44 75 3e
       -0.036389045 0.00819559 -0.25147882 0.23951803
000010 6d 50 b9 3e 0d c2 c6 3d 9b 29 82 be 10 b3 e1 bd
       0.36194173 0.09704981 -0.25422367 -0.110204816
000020 e5 df b7 3e b4 e9 f3 3e 81 93 ad bd b9 28 c2 3d
       0.35913005 0.4763924 -0.084754 0.094804235
000030 42 de 74 be 6d b2 ae 3c ee 09 b0 be 2f b9 e6 3c
       -0.2391291 0.021325314 -0.34382576 0.028164474
000040 67 03 87 3e 0a 62 ab be b9 b0 f5 3c 79 23 3e 3e
       0.26369783 -0.33473235 0.029991494 0.18568219
000050 be 2e 38 bc eb 23 61 3e b5 4c 10 3e f6 2c 1e be
       -0.011241613 0.21986358 0.14091761 -0.15446839
000060 fe 22 c7 bc c3 2b 60 3e 4e de d3 bc 02 74 99 be
       -0.024308678 0.21891694 -0.02586284 -0.2997132
000070 34 a6 cc bd 0c 62 07 bd cb 5c 7b be 81 91 29 3e
       -0.09992638 -0.03305249 -0.24547116 0.16559412
000080 84 53 35 be d2 b7 19 3e ff 27 6c 3e bb 97 78 be
       -0.1770764 0.15011528 0.23062132 -0.2427663
000090 60 16 47 be fd 62 4b bd b5 bb 99 bc a3 18 a3 bb
       -0.19442129 -0.04965495 -0.018766263 -0.004977302
0000a0 60 3f 3f bd 6a 87 89 3b 07 c2 2d 3e e9 35 8b bd
       -0.0466913 0.004197051 0.16968547 -0.06797392
0000b0 7d 15 25 3e 18 36 3b bd 86 e9 12 be 79 59 f5 3d
       0.16121478 -0.045705885 -0.14346895 0.11979956
0000c0 32 41 02 bd 98 43 62 3e cd 78 29 be 17 80 ff bc
       -0.031800456 0.22096097 -0.16549988 -0.031189008
0000d0 55 20 92 be 8c 60 b6 bd 2c 7f 0a be 7d 9e 50 3d
       -0.28540292 -0.089051336 -0.13525075 0.050932396
0000e0 63 b7 91 3d 49 71 20 3e 71 c5 32 bd 7d 72 8c be
       0.07115056 0.15668215 -0.043645326 -0.27431098
0000f0 af 87 ed 3c 24 ed 50 3e f1 28 d5 3d 0c 93 c4 3b
       0.028995363 0.20402962 0.104081996 0.0059989747
000100 5c a1 a7 3d d4 a9 32 3b c6 57 80 be b2 8f 02 3e
       0.08185074 0.002726187 -0.25066966 0.12750128
000110 56 e4 40 be 52 9a a9 be b2 0f c9 bc 2c d0 3e be
       -0.18837103 -0.3312555 -0.024543617 -0.18634099
000120 28 ed 71 3e e1 43 4b be 65 d3 71 be 30 6f 26 3b
       0.23625624 -0.19850112 -0.23615797 0.0025395863
000130 ac 32 0e 3e 22 1f cd 3d 5c 31 50 be e8 73 83 be
       0.13886517 0.10015704 -0.20331329 -0.25674367
000140 37 0b 6f be ec 78 1b be 15 bd 44 3e da c0 dd bd
       -0.23344122 -0.15182847 0.19212754 -0.10827799
000150 c2 a5 93 be e2 b2 9d be 1a 3e 41 3e a7 c6 72 be
       -0.288374 -0.3080054 0.18871346 -0.23708592
000160 4a 55 3a 3e 11 67 d9 be 3c 77 0d 3e f9 3e b5 be
       0.18196598 -0.42461446 0.13815016 -0.35399607
000170 be 73 94 bd 1d 67 af 3e 6b 71 0b 3e a6 aa b7 3d
       -0.072486386 0.34258357 0.13617484 0.089680955
000180 55 74 4e 3e 59 3f 1c 3e bc 21 e6 bd 3d 92 0f 3d
       0.20161565 0.1525854 -0.11236903 0.035051573

fc2_var.bias f4 [10]
000000 3b 68 02 3f 49 5d b9 be 48 b7 47 be 35 1f 0c be
       0.50940293 -0.36203983 -0.1950351 -0.1368378
000010 ec 58 0a 3e 03 69 d9 bd 8f a4 ed 3d 81 3f 65 be
       0.13510484 -0.106157325 0.11603653 -0.22387506
000020 75 4b cd 3d f3 fe c2 3d
       0.10024158 0.09521284

fc3_var.weight f4 [1, 10]
000000 19 a0 2b bf 3d c4 fe 3d d9 ff 22 be 20 90 af bc
       -0.67041165 0.12439773 -0.1591791 -0.021431029
000010 5c 7d c5 bb a1 20 0c be be 91 3f 3e af 60 c1 3e
       -0.006026907 -0.13684322 0.1870794 0.37769076
000020 a5 e7 9d 3e 38 8e 3d 3d
       0.30840793 0.04627821
