toyRegression/toyRegression/training_logs/model_SGLD-64_1/checkpoints/model_SGLD-64_1_epoch_1.pth (torch_old, 2971 bytes, 10 tensors)

fc1_mean.weight f4 [10, 1]
0	0xbf65155c	-0.89485717
1	0xbf45dae2	-0.77287114
2	0x3f49c0d8	0.7880988
3	0xbd8746b7	-0.06605285
4	0x3e27f5ae	0.16402313
5	0xbdd3b1ea	-0.10336669
6	0x3dd3104a	0.10305841
7	0xbf3f26d8	-0.74668646
8	0x3dd2c71f	0.102918856
9	0x3e4dfd91	0.20116259

fc1_mean.bias f4 [10]
0	0x3f744e90	0.95432377
1	0x3f07b1ac	0.5300548
2	0xbf5c681d	-0.86096364
3	0xbedc66a5	-0.43047062
4	0x3eaa8915	0.3330771
5	0x3dadfc99	0.08495445
6	0xbecaf711	-0.39641622
7	0xbf6aa33b	-0.9165532
8	0xbf68c5b5	-0.90926677
9	0x3f04dbbf	0.51897806

fc2_mean.weight f4 [10, 10]
0	0x3d226c0a	0.039653815
1	0x3ea9ea12	0.33186394
2	0x3e81a0a9	0.25317886
3	0xbdabd478	-0.083901346
4	0x3d5ae0fd	0.05343722
5	0x3e322831	0.17398144
6	0x3d876999	0.06611938
7	0x3e5128e5	0.20425756
8	0x3e7521ff	0.2393875
9	0xbdccc157	-0.09997814
10	0x3e8ed5f0	0.27897596
11	0x3decacbe	0.115563855
12	0xbe822792	-0.25420815
13	0xbe5c7aaa	-0.21531168
14	0x3e9b341b	0.3031319
15	0xbdb8f660	-0.09031367
16	0x3d8c26bd	0.06843326
17	0x3dc8fb35	0.09813539
18	0xbe20d30f	-0.15705512
19	0xbea5581c	-0.32293785
20	0x3e974d45	0.2955114
21	0xbdc52812	-0.096267834
22	0xbe941dbd	-0.28928939
23	0x3df1e01e	0.11810325
24	0xbd4f308e	-0.050583415
25	0xbe6e394d	-0.23264046
26	0x3dfded93	0.12398829
27	0xbb868f1e	-0.0041064164
28	0xbe0c7a51	-0.13718535
29	0x3bbf91bf	0.0058462317
30	0xbcdb6313	-0.02678064
31	0xbb0576a3	-0.0020364902
32	0xbe257d15	-0.16160996
33	0xbd5e1a1c	-0.05422412
34	0x3d4a6686	0.04941418
35	0x3e44971a	0.19198266
36	0xbe080d12	-0.13286236
37	0x3e684318	0.22681844
38	0x3da4bc2c	0.080437034
39	0xbe4178fc	-0.18893808
40	0xbe64fe9b	-0.2236275
41	0x3ea3d2ee	0.31996864
42	0x3dd35cb1	0.10320414
43	0x3e9c98d8	0.3058536
44	0xbdb2cda4	-0.08730629
45	0x3e07c949	0.13260378
46	0xbc417482	-0.011807563
47	0xbe6e9036	-0.232972
48	0xbe16a7a2	-0.14712384
49	0xbdfdbf30	-0.12389982
50	0xbe14aa67	-0.14518128
51	0x3dab2164	0.08355978
52	0x3d13891c	0.03601943
53	0xbe0d5e5d	-0.13805528
54	0xbe71d0ca	-0.23614803
55	0x3dd8d0b6	0.105866835
56	0xbb1b30e9	-0.0023680276
57	0xbe29bcd1	-0.16575934
58	0xbe872d72	-0.2640186
59	0x3e94d8cd	0.29071656
60	0x3daddbca	0.08489187
61	0xbdd03edd	-0.1016824
62	0xbdfbb85f	-0.12291025
63	0xbe6359b8	-0.22202194
64	0xbe94fa91	-0.29097417
65	0x3e2b71d1	0.16742636
66	0xbe4ecfe1	-0.20196487
67	0xbe9836da	-0.29729348
68	0x3e243a95	0.16037972
69	0x3be5d1b7	0.0070135253
70	0x3daeee7b	0.0854158
71	0x3e4398c0	0.19101238
72	0x3e1a40a9	0.15063728
73	0xbe73f462	-0.23823693
74	0x3e3b7a2e	0.18308327
75	0x3d9fa74e	0.07795583
76	0x3d7b3415	0.061328966
77	0x3c02f3a5	0.00799266
78	0x3e1cf92f	0.15329431
79	0xbe5c75f4	-0.2152937
80	0xbe02629f	-0.12732933
81	0x3e8c7ef9	0.27440622
82	0x3e82f263	0.2557555
83	0xbe7872ea	-0.24262586
84	0x3db27d0d	0.08715258
85	0xbe960ff8	-0.29309058
86	0x3c0d921a	0.00864079
87	0x3e346157	0.17615257
88	0x3df60bbf	0.12013959
89	0xbe6564f3	-0.2240179
90	0xbba1bb7c	-0.00493568
91	0x3dfc9833	0.12333717
92	0x3e7f4b23	0.24931006
93	0x3e3739b2	0.17893103
94	0x3b8b386e	0.0042486703
95	0x3e67a5e9	0.22621883
96	0xbe3748c2	-0.17898849
97	0xbe339cd5	-0.17540295
98	0xbd696b78	-0.056987256
99	0xbe4c2d8b	-0.19939248

fc2_mean.bias f4 [10]
0	0x3d62fabc	0.0554149
1	0x3e6f7210	0.23383355
2	0xbdcbba9a	-0.09947701
3	0x3e56cd44	0.2097674
4	0x3e4705b2	0.19435766
5	0xbe07e6c2	-0.13271621
6	0x3dc97c36	0.098381445
7	0xbe1ecaaa	-0.15506998
8	0xbe34087f	-0.17581366
9	0xbda10e77	-0.07864087

fc3_mean.weight f4 [1, 10]
0	0xbe9c435a	-0.30520135
1	0xbe920a30	-0.28523397
2	0xbd89cdbf	-0.06728696
3	0xbe27ac0e	-0.16374227
4	0xbe904e36	-0.2818467
5	0xbe805ec5	-0.25072303
6	0xbe9188fe	-0.2842483
7	0x3d44cb1c	0.048045263
8	0x3e8586b4	0.26079333
9	0x3c54d8ea	0.0129911695

fc1_var.weight f4 [10, 1]
0	0x3f0901b4	0.53518224
1	0xbf190483	-0.5977251
2	0x3c7c9c7c	0.015418168
3	0x3edc3d6f	0.4301562
4	0x3ea443ec	0.3208307
5	0xbedf27c2	-0.4358502
6	0x3d66afd6	0.056320034
7	0x3e116259	0.14197673
8	0xbf3ec1c6	-0.74514425
9	0x3dfc177e	0.12309168

fc1_var.bias f4 [10]
0	0xbeda8a88	-0.42683816
1	0x3ed19c22	0.40939432
2	0xbf1af18d	-0.6052483
3	0xbdec4496	-0.11536519
4	0x3ef14349	0.47121647
5	0xbf7e0f12	-0.99241745
6	0x3e7e35bf	0.2482519
7	0x3e7bba43	0.24582772
8	0xbe892da1	-0.26792625
9	0x3f4b9b97	0.79534286

fc2_var.weight f4 [10, 10]
0	0xbd20d532	-0.03926582
1	0xbe0675e1	-0.13130905
2	0xbe41a08a	-0.18908897
3	0x3e81f4ee	0.2538218
4	0x3e5ceea6	0.21575412
5	0x3c8f6139	0.017502414
6	0xbe84d09e	-0.25940412
7	0xbe370004	-0.178711
8	0x3e6eda66	0.233255
9	0x3e97a0b0	0.29614782
10	0xbe100838	-0.14065635
11	0x3d9b35b1	0.075786
12	0xbe5c7c00	-0.21531677
13	0xbd739580	-0.059468746
14	0xbea055d3	-0.3131548
15	0x3d8f2cae	0.06990944
16	0x3e9f3796	0.31097096
17	0xbe920b19	-0.28524092
18	0x3c1ed339	0.009693914
19	0x3e914778	0.2837484
20	0xbd6cdff4	-0.057830766
21	0x3e383eb2	0.17992666
22	0x3dadf839	0.0849461
23	0xbde2e933	-0.110796355
24	0xbdc80cc2	-0.09768058
25	0x3e6568f8	0.22403324
26	0xbd3ae868	-0.045631796
27	0xbe86efd4	-0.2635485
28	0xbc9795c9	-0.01850404
29	0xbd4cd6f2	-0.050009675
30	0xbe4963ce	-0.19666979
31	0x3e0184ae	0.1264827
32	0xbe34b058	-0.17645395
33	0x3dcc4081	0.09973241
34	0x3e8ebbed	0.2787775
35	0xbe88d7e1	-0.26727203
36	0xbdf02258	-0.117253006
37	0xbddaa199	-0.106753536
38	0xbd0a322d	-0.033739258
39	0x3d350a77	0.044199433
40	0xbca86ea1	-0.020560564
41	0x3d908a68	0.07057649
42	0x3dd8356a	0.10557063
43	0xbd9e433e	-0.07727669
44	0x3ddcb819	0.10777301
45	0xbd68266b	-0.056677263
46	0xbe0af1de	-0.13568828
47	0x3db37fc0	0.08764601
48	0xbc221e07	-0.009894854
49	0x3e623fac	0.22094601
50	0xbe18d219	-0.14923896
51	0xbdc1d950	-0.09465277
52	0xbeb78b2d	-0.3584837
53	0xbde3cf46	-0.11123519
54	0xbd3af871	-0.04564709
55	0x3c9098bd	0.017650956
56	0x3dce40b6	0.100709364
57	0x3dbac07f	0.09118747
58	0xbc1b4508	-0.009476908
59	0xbe665261	-0.22492363
60	0xb8c8e240	-9.5788855e-05
61	0x3e0a2030	0.13488841
62	0x3e235a5c	0.15952438
63	0x3d8f95ab	0.07010969
64	0x3cb7356f	0.022364346
65	0x3c85e611	0.016345056
66	0xbe41bb7c	-0.18919176
67	0x3d872f2b	0.066007935
68	0xbe2fb55d	-0.17159028
69	0xbe9bc80c	-0.3042606
70	0xbd81da34	-0.06340447
71	0xbe775dcf	-0.24156879
72	0x3e43b555	0.19112141
73	0xbdf72e83	-0.12069418
74	0xbe1488c7	-0.14505301
75	0xbd3d5212	-0.046220846
76	0x3e4e9eb8	0.20177734
77	0x3e53cd35	0.20683749
78	0xbe248ea3	-0.16070037
79	0xbe902102	-0.28150183
80	0xbe462a34	-0.19352037
81	0xbe02dfd7	-0.127807
82	0x3e526e9e	0.2055001
83	0xbd836174	-0.06415072
84	0xbe8c8482	-0.27444845
85	0xbe7ee54f	-0.24892162
86	0x3e5b97fc	0.21444696
87	0xbe46e66c	-0.19423836
88	0x3ea4695a	0.32111627
89	0xbe99a4e7	-0.30008623
90	0x3d9b10f9	0.07571597
91	0xbe95b5ea	-0.29240352
92	0xbd836565	-0.06415824
93	0x3e960760	0.29302502
94	0x3e331a2f	0.17490457
95	0x3e1a7aba	0.15085879
96	0x3e823ae5	0.25435558
97	0x3dc9b4a8	0.098489106
98	0xbe07abac	-0.13249081
99	0xba1830d4	-0.0005805616

fc2_var.bias f4 [10]
0	0x3e419271	0.18903519
1	0xbe9e3aee	-0.30904335
2	0xbe449625	-0.191979
3	0xbe205a93	-0.15659551
4	0x3e2fd467	0.17170869
5	0x3d582869	0.052772913
6	0x3e35852b	0.17726581
7	0xbe2918a8	-0.16513312
8	0x3de0b761	0.10972477
9	0x3e6dd13b	0.23224346

fc3_var.weight f4 [1, 10]
0	0xbe8b47c6	-0.27203196
1	0x3ddf94db	0.10917064
2	0xbe2d6c3a	-0.16935816
3	0xbcbb1136	-0.022835355
4	0x3e303c47	0.17210494
5	0xbdea8fb6	-0.11453192
6	0x3e0aa859	0.13540782
7	0x3eb6661f	0.35624787
8	0x3e67c587	0.22633944
9	0x3e8c4c43	0.27401933
