toyRegression/toyRegression/training_logs/model_SGLD-64_1/checkpoints/model_SGLD-64_1_epoch_4.pth (torch_old, 2971 bytes, 10 tensors)

fc1_mean.weight f4 [10, 1]
0	0xbf793090	-0.97339725
1	0xbf3d107b	-0.7385327
2	0x3f44fb49	0.7694593
3	0x3c3c0ae4	0.011477206
4	0x3dd675b3	0.10471668
5	0xbdc82fee	-0.09774767
6	0x3dabcaa2	0.083882585
7	0xbf2a5f0b	-0.66551274
8	0x3e02de94	0.1278022
9	0x3e4ab94b	0.19797246

fc1_mean.bias f4 [10]
0	0x3f81e532	1.014807
1	0x3f072ac2	0.5279962
2	0xbf5edf7f	-0.8705978
3	0xbeeadb3e	-0.45870394
4	0x3ea22120	0.31665897
5	0x3d75f0b7	0.060044017
6	0xbed2d7e0	-0.41180325
7	0xbf690af6	-0.9103235
8	0xbf64b7a7	-0.8934273
9	0x3f2bb4ab	0.6707255

fc2_mean.weight f4 [10, 10]
0	0x3dd8be58	0.1058318
1	0x3ec5448d	0.38528863
2	0x3e53c7a9	0.20681633
3	0xbd92805c	-0.07153389
4	0x3d8f1c12	0.06987776
5	0x3e3f32cd	0.18671723
6	0x3cfc2e65	0.030783841
7	0x3e6aa103	0.22912984
8	0x3e839371	0.25698426
9	0xbe0608b2	-0.13089254
10	0x3ebfb51d	0.37442866
11	0x3e1ed0f8	0.15509403
12	0xbe86d1ea	-0.26332027
13	0xbe33754c	-0.17525214
14	0x3e8f7f4a	0.280268
15	0xbe3a7236	-0.1820763
16	0x3d882a41	0.06648684
17	0x3db5fad9	0.08885736
18	0xbde69acb	-0.11259993
19	0xbebbce59	-0.36680868
20	0x3e9a1fa3	0.30102262
21	0xbe3b1b88	-0.18272221
22	0xbeb18b5c	-0.34676635
23	0x3e2453b2	0.16047552
24	0xbd2a43ed	-0.041568685
25	0xbe7ba2f6	-0.24573883
26	0x3e0f33ef	0.13984655
27	0x3cc2065c	0.023684673
28	0xbe33a4e0	-0.17543364
29	0xbcc9fae9	-0.024655776
30	0x3cbe0a8e	0.023198392
31	0xbdb162d0	-0.08661425
32	0xbe32f26e	-0.17475292
33	0xbde0e0ab	-0.10980352
34	0x3c6f901d	0.014621762
35	0x3e2e3568	0.1701256
36	0xbe0bc7bf	-0.13650416
37	0x3e4adb15	0.19810136
38	0x3dfdc490	0.12391007
39	0xbe123c90	-0.14280915
40	0xbe1bd5f9	-0.15218343
41	0x3eb0e57f	0.34550092
42	0x3d9e6a88	0.07735163
43	0x3e4b90d0	0.1987946
44	0xbe0c1c7e	-0.13682744
45	0x3e01ddac	0.12682217
46	0xbbf5218b	-0.0074808053
47	0xbe7118da	-0.23544636
48	0xbdbcdf60	-0.09222293
49	0xbde99b84	-0.114066154
50	0xbe08c69e	-0.13357016
51	0x3d6b8edc	0.05750929
52	0xbc0fb088	-0.008770116
53	0xbe6cce2d	-0.23125525
54	0xbe862e02	-0.26206976
55	0x3da7a218	0.08185214
56	0x3cc47c4a	0.023985047
57	0xbe29c981	-0.16580774
58	0xbe5b365b	-0.21407454
59	0x3e9cab6b	0.30599532
60	0x3e00165d	0.12508531
61	0xbd11dddb	-0.03561197
62	0xbd94b789	-0.07261569
63	0xbe9955f5	-0.29948393
64	0xbe9533c3	-0.29141054
65	0x3e066e99	0.13128127
66	0xbe886c73	-0.2664524
67	0xbeae8fe7	-0.34094164
68	0x3e479c60	0.19493246
69	0x3d00fc4d	0.031490613
70	0x3d0080b5	0.031372745
71	0x3e313a54	0.17307407
72	0x3e0740f2	0.13208368
73	0xbe791821	-0.2432561
74	0x3e18ba83	0.14914899
75	0x3d39fab5	0.04540511
76	0xbbe4dce1	-0.0069843386
77	0xbb3d4b76	-0.002888409
78	0x3e087179	0.13324536
79	0xbe60cb02	-0.21952441
80	0xbdb6ac76	-0.08919613
81	0x3ea71425	0.32632557
82	0x3e572aba	0.21012393
83	0xbe621f16	-0.22082171
84	0x3deb3528	0.11484748
85	0xbe846706	-0.2585985
86	0x3d882f57	0.06649654
87	0x3e53dced	0.20689745
88	0x3e08307c	0.13299745
89	0xbe8188a5	-0.25299564
90	0x3d366461	0.044529323
91	0x3e0cd786	0.1375409
92	0x3e6dc7f2	0.23220804
93	0x3df245c6	0.118297145
94	0x3deca854	0.115555435
95	0x3e8c45fd	0.27397147
96	0xbe4a2164	-0.197393
97	0xbe265cc5	-0.16246326
98	0xbd8ccf42	-0.06875469
99	0xbe3288b5	-0.17434962

fc2_mean.bias f4 [10]
0	0xbc234d64	-0.009967182
1	0x3e1b1ab9	0.15146913
2	0xbdec7127	-0.115450196
3	0x3e618e32	0.220269
4	0x3de9908e	0.11404525
5	0xbe192307	-0.14954768
6	0x3d9863f1	0.07440937
7	0xbe85f1fa	-0.26161176
8	0xbe179f5a	-0.14806882
9	0xbbf3d215	-0.007440815

fc3_mean.weight f4 [1, 10]
0	0xbeb11fb0	-0.34594488
1	0xbeb8ce17	-0.36094734
2	0xbde284ff	-0.11060523
3	0xbe1f3d11	-0.15550639
4	0xbe9a1871	-0.30096772
5	0xbe390ffd	-0.18072505
6	0xbeb05090	-0.34436464
7	0x3dc14fd3	0.094390534
8	0x3e57e64c	0.21083945
9	0x3d1346f6	0.035956345

fc1_var.weight f4 [10, 1]
0	0x3f105026	0.56372297
1	0xbf2392de	-0.63895977
2	0x3d01b336	0.03166505
3	0x3ebbf72e	0.3671202
4	0x3ec4cda6	0.38438147
5	0xbec38a34	-0.38191378
6	0x3b9bbef0	0.004752986
7	0x3dcc43ba	0.09973855
8	0xbf45099d	-0.76967794
9	0x3dde4874	0.10853663

fc1_var.bias f4 [10]
0	0xbec37a29	-0.38179138
1	0x3ed89869	0.4230378
2	0xbf06d530	-0.5266905
3	0xbd36f066	-0.044662856
4	0x3f0b8e55	0.54514056
5	0xbf7e15bd	-0.9925192
6	0x3e4a484f	0.19754146
7	0x3e6d0fac	0.2315051
8	0xbe287e68	-0.1645447
9	0x3f3be58b	0.7339713

fc2_var.weight f4 [10, 10]
0	0xbdb22495	-0.08698384
1	0xbb94d499	-0.004541945
2	0xbe6e36f9	-0.23263158
3	0x3e7a4475	0.24440177
4	0x3eaddbe2	0.3395682
5	0x3def0b86	0.1167212
6	0xbe78fdd8	-0.24315584
7	0xbe002105	-0.12512596
8	0x3ea9da12	0.33174187
9	0x3ee50f2e	0.44738144
10	0xbd88f3b4	-0.06687108
11	0x3daa2943	0.08308651
12	0xbe6a1e9a	-0.22863236
13	0xbcc7683f	-0.0243417
14	0xbeba9a82	-0.36446005
15	0x3ca184e1	0.019716682
16	0x3e806336	0.25075692
17	0xbea4714e	-0.32117695
18	0x3cc8912b	0.024483284
19	0x3e57321d	0.2101521
20	0x3be7fc0d	0.0070796073
21	0x3e4118d2	0.18857124
22	0x3dfccd67	0.12343865
23	0xbdc8776f	-0.09788405
24	0xbd08a48b	-0.033360045
25	0x3e6116fd	0.21981426
26	0xbd7c4a8c	-0.06159453
27	0xbe85c340	-0.26125526
28	0xbd816be1	-0.063194044
29	0x3c81f846	0.015865456
30	0xbe673940	-0.22580433
31	0x3e3487a3	0.17629866
32	0xbe30d34f	-0.17268108
33	0x3dfb4cf6	0.122705385
34	0x3e5cff39	0.21581735
35	0xbe6967b0	-0.2279346
36	0xbe30b9fe	-0.1725845
37	0xbd873c56	-0.06603305
38	0xbd27759c	-0.040883645
39	0x3d031b59	0.032008503
40	0xbc9ca281	-0.019120457
41	0x3cde0926	0.027103972
42	0x3e514ed2	0.20440224
43	0xbdba3319	-0.09091777
44	0x3e0cd6e6	0.13753852
45	0xbd79767e	-0.06090402
46	0xbe22251e	-0.15834472
47	0x3e05d6b5	0.13070185
48	0xbd01c564	-0.031682387
49	0x3e477231	0.19477154
50	0xbdf15f44	-0.117857486
51	0xbd066a7b	-0.03281639
52	0xbe9ffa9b	-0.31245884
53	0xbdcc80ad	-0.099854805
54	0xbe04a26e	-0.12952587
55	0x39ac9e99	0.0003292456
56	0x3dc4e112	0.09613241
57	0x3e173a5f	0.1476836
58	0x3d29b7a3	0.041434895
59	0xbe960d23	-0.29306898
60	0x3cf86aa4	0.030324288
61	0x3e54d776	0.20785317
62	0x3d849688	0.06474024
63	0x3d73a7e6	0.059486292
64	0x3dd6a25c	0.10480186
65	0x3b6fe7ca	0.0036606663
66	0xbe8b6359	-0.27224234
67	0x3dcaed99	0.099085994
68	0xbe63d6aa	-0.22249857
69	0xbea8e8db	-0.32990155
70	0xbd14f51d	-0.03636657
71	0xbe82d9a3	-0.2555667
72	0x3e659a12	0.22422054
73	0xbe306224	-0.17224938
74	0xbe6de29f	-0.2323098
75	0xbc917ba8	-0.01775916
76	0x3df737c3	0.120711826
77	0x3dbd1956	0.09233348
78	0xbe49f2ba	-0.19721499
79	0xbe5824bd	-0.21107765
80	0xbe8087b6	-0.2510354
81	0xbdb4c6b5	-0.08826963
82	0x3e5eb759	0.21749629
83	0xbdbc30a5	-0.09188966
84	0xbe9ee581	-0.31034473
85	0xbe9b0695	-0.3027846
86	0x3e40c93d	0.18826766
87	0xbe72a926	-0.23697338
88	0x3e49ca18	0.19705999
89	0xbec44403	-0.3833314
90	0x3d96140a	0.07328041
91	0xbeb0c65e	-0.34526342
92	0xbd9c6ecf	-0.076383226
93	0x3ea0a2c0	0.31374168
94	0x3e0b6da1	0.13616039
95	0x3dc1a4b9	0.094552465
96	0x3e47ec53	0.19523744
97	0x3db6fd1c	0.089349955
98	0xbe1ab6d2	-0.15108803
99	0x3d63c523	0.055607926

fc2_var.bias f4 [10]
0	0x3ed11705	0.40837875
1	0xbeb44e7e	-0.35216135
2	0xbe5205ff	-0.205101
3	0xbe1ddf06	-0.15417108
4	0x3dd5d384	0.10440734
5	0xbd284e3c	-0.041090235
6	0x3dc4d305	0.09610561
7	0xbe3e9f13	-0.1861537
8	0x3dd7733f	0.10520028
9	0x3e18baeb	0.14915054

fc3_var.weight f4 [1, 10]
0	0xbf0a3af8	-0.5399623
1	0x3df9c019	0.12194843
2	0xbe44699e	-0.19180915
3	0xbd576ae4	-0.052592173
4	0x3d80804e	0.06274472
5	0xbe1e85d2	-0.15480736
6	0x3e23ef5b	0.16009276
7	0x3ec6dd1c	0.38840568
8	0x3e9f1e64	0.31077874
9	0x3d8e969a	0.06962319
