code/sgld_final_code/toyRegression/training_logs/model_SGLD-64_1/checkpoints/model_SGLD-64_1_epoch_6.pth (torch_old, 2971 bytes, 10 tensors)

fc1_mean.weight f4 [10, 1]
0	0xbf80062d	-1.0001885
1	0xbf39ebd9	-0.726255
2	0x3f53f95b	0.8280236
3	0xbd2ba373	-0.041903924
4	0x3e143947	0.14474975
5	0xbdb0ca3d	-0.08632324
6	0x3d9c8257	0.07642048
7	0xbf30ecdd	-0.69111425
8	0x3e0b45bc	0.1360082
9	0x3e6f3a44	0.2336207

fc1_mean.bias f4 [10]
0	0x3f850382	1.0391695
1	0x3f0e389c	0.5555513
2	0xbf654db3	-0.89571685
3	0xbec7e1a7	-0.39039347
4	0x3e89385b	0.26800808
5	0x3da522e9	0.08063299
6	0xbec5fbc1	-0.38668635
7	0xbf61e503	-0.8824007
8	0xbf5403b3	-0.82818145
9	0x3f1fc3d3	0.6240818

fc2_mean.weight f4 [10, 10]
0	0x3d138989	0.036019836
1	0x3eb21de8	0.34788442
2	0x3e5dcfe6	0.21661338
3	0xbdc751e6	-0.09732418
4	0x3dbae828	0.091263115
5	0x3e37da19	0.17954291
6	0x3dc6cd87	0.0970717
7	0x3e58eda1	0.21184398
8	0x3e8fe824	0.28106797
9	0xbe0fad2e	-0.14030907
10	0x3ecdea3b	0.40217766
11	0x3e2be308	0.16785824
12	0xbe9f159b	-0.3107117
13	0xbe6bd322	-0.2302976
14	0x3ea3ba1e	0.31977934
15	0xbe000e4f	-0.12505458
16	0x3e0083c3	0.12550263
17	0x3db1fbb7	0.08690589
18	0xbdc9c9c6	-0.09852938
19	0xbe9de799	-0.30840757
20	0x3eb0e9b7	0.3455331
21	0xbe2fc351	-0.17164351
22	0xbea9fd40	-0.33201027
23	0x3e070f22	0.13189366
24	0xbd516afb	-0.051127415
25	0xbe8089f6	-0.25105256
26	0x3e2b1bf2	0.16709879
27	0xbbadd721	-0.0053051864
28	0xbe4dd2ba	-0.20099917
29	0xbd7353cc	-0.059406087
30	0x3cc6de3e	0.024275895
31	0xbdec998e	-0.11552726
32	0xbe42f215	-0.1903766
33	0xbddf2441	-0.10895587
34	0xbc5d373a	-0.013501937
35	0x3e11170c	0.14168948
36	0xbddc11d7	-0.1074559
37	0x3e3cf0bb	0.18451206
38	0x3e21e6eb	0.15810744
39	0xbe1a2974	-0.15054876
40	0xbe39299d	-0.1808228
41	0x3eb39e62	0.35081774
42	0x3bae185d	0.005312963
43	0x3e27e0e7	0.16394387
44	0xbe237dae	-0.15965912
45	0x3e088e27	0.13335477
46	0xbc9e147d	-0.019296879
47	0xbe872115	-0.26392427
48	0xbe023a98	-0.12717664
49	0xbdb8665e	-0.090039
50	0xbdfcdaed	-0.12346444
51	0x3d1b767f	0.037954804
52	0x3c9a2445	0.018816123
53	0xbe4e8cb5	-0.20170863
54	0xbea98781	-0.33111194
55	0x3d1adf03	0.037810337
56	0x3d79558c	0.0608726
57	0xbe14b514	-0.14522201
58	0xbe436eef	-0.19085287
59	0x3e84b0a6	0.25916022
60	0x3e478692	0.19484928
61	0xbcac3027	-0.021019055
62	0xbc376161	-0.0111926505
63	0xbe8db74a	-0.276789
64	0xbe75d804	-0.24008185
65	0x3e18ef59	0.14935054
66	0xbe7e4d42	-0.24834159
67	0xbebf89af	-0.37409732
68	0x3e362205	0.17786415
69	0x3c96cc53	0.018407976
70	0x3e04647e	0.1292896
71	0x3e1a49a2	0.15067151
72	0x3de419d8	0.11137742
73	0xbe672b00	-0.22574997
74	0x3e14d644	0.14534861
75	0x3d4e6f18	0.050398916
76	0x3bc63433	0.006048703
77	0xbccccf05	-0.025001058
78	0x3deaef70	0.1147145
79	0xbe71e596	-0.23622736
80	0xbdc00eba	-0.09377809
81	0x3eb7750e	0.35831493
82	0x3e1ee825	0.15518244
83	0xbe585008	-0.2112428
84	0x3e3072e6	0.1723133
85	0xbe3652b9	-0.17804994
86	0x3e09b176	0.13446602
87	0x3e81afed	0.25329533
88	0x3e0588f8	0.1304053
89	0xbe7fc553	-0.24977617
90	0x3d21456f	0.039372858
91	0x3df7247d	0.120675065
92	0x3e74959b	0.23885195
93	0x3e257a60	0.16159964
94	0x3da88dec	0.082301944
95	0x3e939267	0.28822634
96	0xbe80c3ab	-0.25149283
97	0xbe3c5c0e	-0.18394491
98	0xbd9ab833	-0.075546645
99	0xbe31f177	-0.17377268

fc2_mean.bias f4 [10]
0	0xbd7cc7ee	-0.061714105
1	0x3e512bc7	0.20426856
2	0xbe00d343	-0.1258059
3	0x3e59d353	0.2127202
4	0x3e17dbed	0.14829989
5	0xbe0b201d	-0.13586469
6	0x3dbd56bd	0.0924506
7	0xbe7aad9a	-0.24480286
8	0xbdf94c2e	-0.12172733
9	0x3ca93dfe	0.020659443

fc3_mean.weight f4 [1, 10]
0	0xbebf79e5	-0.37397686
1	0xbee901d4	-0.45509207
2	0xbdc1ef37	-0.09469455
3	0xbddd9300	-0.10819054
4	0xbe996d94	-0.29966414
5	0xbe3cc712	-0.18435314
6	0xbeb17331	-0.34658197
7	0x3e19e53f	0.15028857
8	0x3e56be06	0.20970926
9	0x3d41e1ba	0.04733441

fc1_var.weight f4 [10, 1]
0	0x3f1e96b4	0.61948705
1	0xbf1fc55b	-0.62410516
2	0x3c787988	0.015165694
3	0x3eb11a45	0.34590355
4	0x3ee5b12e	0.4486174
5	0xbed2a17e	-0.41138834
6	0xbcd6c594	-0.02621726
7	0x3d5e99dc	0.05434595
8	0xbf4d18dc	-0.8011606
9	0x3e117e33	0.14208297

fc1_var.bias f4 [10]
0	0xbeb8a41f	-0.36062714
1	0x3ee78708	0.45220208
2	0xbf0795a0	-0.52962685
3	0xbc1dfd84	-0.009642962
4	0x3f029a8f	0.5101709
5	0xbf7dc0fa	-0.99122584
6	0x3e586e44	0.21135813
7	0x3e3f1568	0.1866051
8	0xbe400552	-0.1875203
9	0x3f49b139	0.78786045

fc2_var.weight f4 [10, 10]
0	0xbd6479e8	-0.05578032
1	0x3c07d7b9	0.008291178
2	0xbe719dfd	-0.23595424
3	0x3e73e512	0.23817852
4	0x3ecba552	0.39774567
5	0x3d31195c	0.043237075
6	0xbe61de23	-0.22057395
7	0xbdde223e	-0.10846375
8	0x3ecd1820	0.40057468
9	0x3f02dd36	0.5111879
10	0xbd704ce1	-0.058667067
11	0x3d9004d7	0.07032173
12	0xbe83e5e7	-0.2576134
13	0x3d81015d	0.06299088
14	0xbeb11a34	-0.34590304
15	0x3d0bba88	0.034113437
16	0x3e8cd610	0.27507067
17	0xbea0cb52	-0.3140512
18	0x3c94898a	0.01813199
19	0x3e56c229	0.20972504
20	0xbbca6cef	-0.0061775367
21	0x3e67ed3d	0.22649093
22	0x3e246749	0.16055025
23	0xbe221ef8	-0.15832126
24	0xbc9382b9	-0.01800667
25	0x3e79b797	0.2438644
26	0xbba5800d	-0.0050506652
27	0xbe91824b	-0.28419718
28	0xbdb3b7dc	-0.08775303
29	0xbd1675ea	-0.036733545
30	0xbe6e85a2	-0.23293164
31	0x3e1fc3e2	0.15602067
32	0xbe117eab	-0.14208476
33	0x3e2eebea	0.17082182
34	0x3e77d58b	0.24202554
35	0xbe74602e	-0.23864815
36	0xbe182932	-0.14859465
37	0xbd9b97c4	-0.07597306
38	0xbcef8d1c	-0.02924209
39	0xbd0a836d	-0.033816744
40	0xbc102be8	-0.008799531
41	0x3d215027	0.03938308
42	0x3e319735	0.17342837
43	0xbd2bc2ff	-0.04193401
44	0x3e69971d	0.22811551
45	0xbc7eae92	-0.0155445505
46	0xbdec9c91	-0.115533
47	0x3d9d8f5b	0.076933585
48	0xbcb82343	-0.022477752
49	0x3e5e2177	0.21692453
50	0xbe3862e4	-0.18006474
51	0xbc89c4f0	-0.01681754
52	0xbe9fdd74	-0.31223643
53	0xbd561f17	-0.052275743
54	0xbdf16795	-0.11787335
55	0x3d178a4f	0.036997136
56	0x3d639589	0.05556253
57	0x3e2b572b	0.1673247
58	0xbcf7e03f	-0.030258296
59	0xbe8c0cab	-0.27353415
60	0x3cececda	0.028921533
61	0x3e6afa09	0.22946943
62	0x3da083be	0.07837628
63	0x3cc10d2d	0.023565853
64	0x3da76260	0.081730604
65	0xbbc28821	-0.005936638
66	0xbe7344a2	-0.2375665
67	0x3dc4b12d	0.09604106
68	0xbe4c019e	-0.19922492
69	0xbe9f1eab	-0.31078085
70	0xbd73e079	-0.059540246
71	0xbe312493	-0.17299108
72	0x3e4e09f8	0.2012099
73	0xbe3a63c8	-0.18202126
74	0xbe8073b3	-0.25088271
75	0xbc5eeff8	-0.013607018
76	0x3e26c971	0.16287781
77	0x3dbbfae9	0.09178717
78	0xbe4f8f58	-0.20269525
79	0xbe82cc84	-0.25546658
80	0xbe6c0e14	-0.23052245
81	0xbe42dde6	-0.1902996
82	0x3e48c7db	0.19607489
83	0xbdfea2ef	-0.12433421
84	0xbea4b693	-0.32170543
85	0xbe8f4291	-0.27980474
86	0x3e5e0761	0.21682502
87	0xbe761d3f	-0.24034594
88	0x3e3555f7	0.17708574
89	0xbef47fe3	-0.4775382
90	0x3e29839c	0.16554111
91	0xbea7eed8	-0.3279941
92	0xbd8ef5fb	-0.06980511
93	0x3ea7c7cc	0.3276962
94	0x3dd79e64	0.105282575
95	0x3db20823	0.08692958
96	0x3e2aced3	0.1668046
97	0x3e093a65	0.13401182
98	0xbe0fa559	-0.14027919
99	0x3cec91b1	0.028878065

fc2_var.bias f4 [10]
0	0x3f1696b2	0.5882369
1	0xbec0e7ea	-0.37676936
2	0xbe6bef8d	-0.230406
3	0xbdbf339c	-0.093360156
4	0x3e185914	0.1487773
5	0xbe2fde76	-0.17174706
6	0x3e087770	0.13326812
7	0xbe467893	-0.19381933
8	0x3da99427	0.08280211
9	0x3e0fd8a2	0.14047483

fc3_var.weight f4 [1, 10]
0	0xbf46e511	-0.7769328
1	0x3e312de9	0.1730267
2	0xbe20045d	-0.15626664
3	0xbc3c85ac	-0.011506479
4	0xbd90f9be	-0.070788845
5	0xbdeb610c	-0.114931196
6	0x3e20e182	0.15711024
7	0x3ebfdcd1	0.37473157
8	0x3e9d6c96	0.30746907
9	0x3c30a012	0.010780351
