code/sgld_final_code/toyRegression/training_logs/model_SGLD-64_1/checkpoints/model_SGLD-64_1_epoch_2.pth (torch_old, 2971 bytes, 10 tensors)

fc1_mean.weight f4 [10, 1]
0	0xbf65d250	-0.89774036
1	0xbf3e44f3	-0.7432396
2	0x3f4a811b	0.7910325
3	0xbc9a9886	-0.018871557
4	0x3e094e55	0.13408788
5	0xbe07f962	-0.13278726
6	0x3e017d44	0.12645441
7	0xbf36de2c	-0.7143276
8	0x3e0c3010	0.1369021
9	0x3e302eba	0.17205325

fc1_mean.bias f4 [10]
0	0x3f72cab3	0.94840544
1	0x3f01c946	0.50697744
2	0xbf55750d	-0.8338173
3	0xbee80ff6	-0.45324677
4	0x3ea1586f	0.31512782
5	0x3d81b203	0.06332781
6	0xbecb932e	-0.39760727
7	0xbf6988c0	-0.9122429
8	0xbf72faae	-0.94913757
9	0x3f084d6d	0.5324314

fc2_mean.weight f4 [10, 10]
0	0x3d6ae89e	0.057350747
1	0x3eb25ad1	0.34834912
2	0x3e5e1aa8	0.21689856
3	0xbd6ce881	-0.05783892
4	0x3d83d214	0.064365536
5	0x3e2ade14	0.16686279
6	0x3d27c2d9	0.040957306
7	0x3e48bfe4	0.1960445
8	0x3e7f4bc6	0.24931249
9	0xbe15b8e0	-0.14621305
10	0x3eae8da5	0.3409244
11	0x3e07a6ea	0.13247266
12	0xbe8630bf	-0.26209065
13	0xbe687c53	-0.22703676
14	0x3eb08d0f	0.3448262
15	0xbdb64d75	-0.089014925
16	0x3d9db199	0.0769989
17	0x3d8c4829	0.06849701
18	0xbddef20f	-0.10886013
19	0xbe9d24f1	-0.30692247
20	0x3e997e29	0.29979065
21	0xbe24d687	-0.1609746
22	0xbeafd0cf	-0.34338996
23	0x3e10cca1	0.1414056
24	0xbd12b800	-0.035820007
25	0xbe80a2b6	-0.2512414
26	0x3dedbb01	0.11607934
27	0x3c062f58	0.008189999
28	0xbdea789b	-0.11448785
29	0xba42c7e4	-0.0007430299
30	0x3c22e86c	0.009943109
31	0xbbd02ae9	-0.0063527715
32	0xbe159e1d	-0.14611097
33	0xbda0eefa	-0.07858081
34	0xbb7fdf2e	-0.0039042938
35	0x3e212173	0.15735416
36	0xbe211ccb	-0.1573364
37	0x3e6d6772	0.23183993
38	0x3d889394	0.06668773
39	0xbe52afa8	-0.2057482
40	0xbe488a8c	-0.19584101
41	0x3e9e1157	0.30872604
42	0x3d863cef	0.06554591
43	0x3e825a00	0.2545929
44	0xbdfd08b7	-0.12355178
45	0x3de33675	0.11094371
46	0xbd91e649	-0.071240015
47	0xbe639de8	-0.22228205
48	0xbdea54b5	-0.11441938
49	0xbdecb51b	-0.115579806
50	0xbe27b116	-0.16376147
51	0x3d91f7b7	0.07127326
52	0x3c1dabb7	0.00962346
53	0xbe11f686	-0.14254197
54	0xbe86b39f	-0.26308915
55	0x3db51fe6	0.08843975
56	0x3b8c9a1a	0.0042908313
57	0xbe0e2ee2	-0.13885072
58	0xbe854eb0	-0.26036596
59	0x3e9e3790	0.30901766
60	0x3dd3dabb	0.10344454
61	0xbd9246d4	-0.07142416
62	0xbdde5218	-0.10855502
63	0xbe6c41e7	-0.23072015
64	0xbe8fe1ba	-0.28101903
65	0x3e0db004	0.13836676
66	0xbe790bf3	-0.24320965
67	0xbeac0cca	-0.33603507
68	0x3e178d76	0.14800057
69	0x3c8f029d	0.0174573
70	0x3d8c429c	0.06848642
71	0x3e40e28d	0.18836422
72	0x3e18329b	0.14863054
73	0xbe63f218	-0.2226032
74	0x3e1fb767	0.15597306
75	0x3d36f448	0.04466656
76	0x3d8ece92	0.06972994
77	0x3ccd7c94	0.025083818
78	0x3deb697e	0.114947304
79	0xbe54a378	-0.20765483
80	0xbdd192eb	-0.102331005
81	0x3e91364e	0.28361744
82	0x3e78421e	0.24243972
83	0xbe6d4c94	-0.23173743
84	0x3dd267e5	0.102737226
85	0xbe997671	-0.29973176
86	0x3d4fa6f4	0.05069633
87	0x3e42e0f8	0.19031131
88	0x3dec6ff4	0.11544791
89	0xbe7e68b7	-0.24844633
90	0x3d873d1f	0.06603455
91	0x3e19053e	0.14943406
92	0x3e623b5d	0.22092958
93	0x3e2921e0	0.16516829
94	0x3d8c263d	0.06843231
95	0x3e854e6b	0.2603639
96	0xbe2e5e23	-0.17028098
97	0xbe2fcc8a	-0.17167869
98	0xbcc19543	-0.023630744
99	0xbe400f76	-0.18755898

fc2_mean.bias f4 [10]
0	0x3cd0ef89	0.025504844
1	0x3e448c66	0.19194183
2	0xbdb9a9e1	-0.09065605
3	0x3e518df8	0.20464313
4	0x3e2156a3	0.15755706
5	0xbe1997eb	-0.14999358
6	0x3dc9bf54	0.09850946
7	0xbe4709fc	-0.19437402
8	0xbe062b8e	-0.13102552
9	0xbcf56e43	-0.029959803

fc3_mean.weight f4 [1, 10]
0	0xbeb1bbe6	-0.34713668
1	0xbeb4bebf	-0.35301778
2	0xbd895fbf	-0.06707715
3	0xbe12f028	-0.14349425
4	0xbe9519a2	-0.2912112
5	0xbe4e401d	-0.20141645
6	0xbea0e7ea	-0.31426936
7	0x3d18b90a	0.037285842
8	0x3e85c50b	0.26126894
9	0x3c73777d	0.014860031

fc1_var.weight f4 [10, 1]
0	0x3f091e80	0.53562164
1	0xbf19caa4	-0.6007483
2	0x3c77efe2	0.015132876
3	0x3ec62bdf	0.38705346
4	0x3ec5361f	0.38517854
5	0xbed7992d	-0.4210905
6	0x3d336192	0.043794222
7	0x3e24b9ae	0.16086456
8	0xbf3c8f9d	-0.73656636
9	0x3dcc6623	0.099804185

fc1_var.bias f4 [10]
0	0xbec7124f	-0.38881156
1	0x3edb8ebe	0.4288234
2	0xbf09978a	-0.53746855
3	0xbdb9d99e	-0.0907471
4	0x3f025976	0.50917757
5	0xbf817e9b	-1.0116762
6	0x3e7ccdb3	0.24687843
7	0x3e88cc31	0.26718286
8	0xbe67b7ad	-0.2262866
9	0x3f442c06	0.76629674

fc2_var.weight f4 [10, 10]
0	0xbdca48e5	-0.09877185
1	0xbd7c77a6	-0.061637543
2	0xbe39b1d0	-0.18134236
3	0x3e8fd450	0.2809167
4	0x3e748465	0.2387863
5	0x3d259eb3	0.04043455
6	0xbe677a60	-0.22605276
7	0xbe48e2f0	-0.1961782
8	0x3e82d0db	0.2554997
9	0x3eb8b903	0.36078653
10	0xbe0c9b8e	-0.13731214
11	0x3d9f52fe	0.077795014
12	0xbe4db8e6	-0.20090064
13	0xbd7d038e	-0.06177097
14	0xbeb7f744	-0.35930836
15	0x3d80f7e6	0.06297283
16	0x3e8fea4c	0.28108442
17	0xbea5e549	-0.32401493
18	0xb9fb0485	-0.00047877818
19	0x3e74b0fe	0.23895642
20	0xbd1746b3	-0.03693266
21	0x3e401dbb	0.18761341
22	0x3e1253e2	0.14289811
23	0xbe0f31b0	-0.13983798
24	0xbd8ab40f	-0.06772625
25	0x3e509d11	0.20372416
26	0xbd1ace9b	-0.03779469
27	0xbe761865	-0.24032743
28	0xbd469426	-0.04848113
29	0xbd45b74e	-0.048270516
30	0xbe440f50	-0.19146466
31	0x3ddbfe1a	0.107418254
32	0xbe41384f	-0.18869136
33	0x3e20e8f3	0.15713863
34	0x3e84e8d0	0.25958872
35	0xbe8bf002	-0.2733155
36	0xbe25585d	-0.16146989
37	0xbdcfe72e	-0.10151516
38	0xbd0bf114	-0.034165457
39	0x3d6d9fa1	0.058013562
40	0xbc436372	-0.011925565
41	0x3d8fb6d5	0.07017294
42	0x3e0ae560	0.13564062
43	0xbda7793e	-0.08177422
44	0x3dace2d6	0.08441703
45	0xbd6ee4a4	-0.058323517
46	0xbe075d7b	-0.13219254
47	0x3e032775	0.1280802
48	0xbc734c2c	-0.014849704
49	0x3e65788d	0.22409268
50	0xbe03b532	-0.1286209
51	0xbda245f6	-0.079235
52	0xbea56967	-0.32306978
53	0xbe0c4305	-0.13697441
54	0xbd2c1c25	-0.04201903
55	0xbbe85fa4	-0.0070914794
56	0x3d944314	0.07239357
57	0x3de8f3fa	0.1137466
58	0x3cddc5a1	0.027071776
59	0xbe68abd1	-0.22721793
60	0x3d032860	0.032020926
61	0x3e3bcbc8	0.18339455
62	0x3e2ffc2e	0.17186043
63	0x3dc7e140	0.0975976
64	0x3da3a7a0	0.07990956
65	0x3c950c1c	0.01819425
66	0xbe330152	-0.17480972
67	0x3da1b24a	0.07895334
68	0xbe5b10e4	-0.21393162
69	0xbea7d81f	-0.32782075
70	0xbd421fed	-0.047393728
71	0xbe76abc2	-0.24088958
72	0x3e2af05f	0.16693257
73	0xbe24c878	-0.16092098
74	0xbe1c0f1d	-0.1524014
75	0xbd33c33f	-0.043887373
76	0x3e393219	0.18085517
77	0x3e251f96	0.1612533
78	0xbe254c49	-0.16142382
79	0xbe764f3f	-0.24053667
80	0xbe44d7c9	-0.1922294
81	0xbdcf2041	-0.10113574
82	0x3e442688	0.19155324
83	0xbdbd19f8	-0.09233469
84	0xbea0293c	-0.3128146
85	0xbe84f632	-0.25969082
86	0x3e454051	0.19262816
87	0xbe5438f9	-0.20724858
88	0x3e91fee2	0.28514773
89	0xbea9f87b	-0.33197388
90	0x3d649955	0.05581029
91	0xbe9c1961	-0.30488113
92	0xbd723a3e	-0.059137575
93	0x3e988c99	0.29794767
94	0x3e130cb9	0.14360322
95	0x3e1fb16e	0.15595028
96	0x3e6fbfa2	0.23412946
97	0x3d97d887	0.07414346
98	0xbe0db866	-0.13839874
99	0xbc18d21a	-0.009327436

fc2_var.bias f4 [10]
0	0x3e894dc2	0.26817137
1	0xbea017bc	-0.31268108
2	0xbe44c53a	-0.19215861
3	0xbe31fbce	-0.17381212
4	0x3e0f8fc7	0.1401969
5	0x3d413743	0.047171842
6	0x3e0dfb69	0.13865437
7	0xbe4391f7	-0.1909865
8	0x3de20687	0.11036401
9	0x3e3c60dd	0.18396325

fc3_var.weight f4 [1, 10]
0	0xbeab1d0e	-0.33420604
1	0x3da8ed14	0.08248344
2	0xbe16e0d3	-0.14734201
3	0xbd1e1144	-0.038590685
4	0x3ddc913b	0.10769888
5	0xbe1c102c	-0.15240544
6	0x3e049e20	0.12950945
7	0x3eb3a7ba	0.35088903
8	0x3e8e44da	0.27786905
9	0x3e69f3a5	0.2284685
